…
text":["{'b': (2, 4), 'c': (3, 5)}\n"]}]},{"cell_type":"markdown","source":["# Inception like model creation example"],"metadata":{"id":"n5c5I4_pHX_j"}},{"cell_type":"code","execution_count":null,"metadata":{"id":"mx7gsY0Rm781","executionInfo":{"status":"ok","timestamp":1695662630655,"user_tz":240,"elapsed":3,"user":{"displayName":"张日腾","userId":"15474554812672166345"}},"colab":{"base_uri":"https://localhost:8080/"},"outputId":"5b582fca-aa42-4248-d427-a6dd202c8853"},"outputs":[{"output_type":"stream","name":"stdout","text":["InceptionLike3Stack(\n","  (stack1_branch1x1): Sequential(\n","    (0): Conv2d(1, 32, kernel_size=(1, 1), stride=(1, 1))\n","    (1): ReLU(inplace=True)\n","  )\n","  (stack1_branch3x3): Sequential(\n","    (0): Conv2d(1, 32, kernel_size=(1, 1), stride=(1, 1))\n","    (1): Conv2d(32, 32, kernel_size=(3, 3), stride=(1, 1), padding=(1, 1))\n","    (2): ReLU(inplace=True)\n","  )\n","  (stack1_branch5x5): Sequential(\n","    (0): Conv2d(1, 32, kernel_size=(1, 1), stride=(1, 1))\n","    (1): Conv2d(32, 32, kernel_size=(5, 5), stride=(1, 1), padding=(2, 2))\n","    (2): ReLU(inplace=True)\n","  )\n","  (stack1_branch_pool): Sequential(\n","    (0): MaxPool2d(kernel_size=3, stride=1, padding=1, dilation=1, ceil_mode=False)\n","    (1): Conv2d(1, 32, kernel_size=(1, 1), stride=(1, 1))\n","    (2): ReLU(inplace=True)\n","  )\n","  (stack2_branch1x1): Sequential(\n","    (0): Conv2d(128, 64, kernel_size=(1, 1), stride=(1, 1))\n","    (1): ReLU(inplace=True)\n","  )\n","  (stack2_branch3x3): Sequential(\n","    (0): Conv2d(128, 64, kernel_size=(1, 1), stride=(1, 1))\n","    (1): Conv2d(64, 64, kernel_size=(3, 3), stride=(1, 1), padding=(1, 1))\n","    (2): ReLU(inplace=True)\n","  )\n","  (stack2_branch5x5): Sequential(\n","    (0): Conv2d(128, 64, kernel_size=(1, 1), stride=(1, 1))\n","    (1): Conv2d(64, 64, kernel_size=(5, 5), stride=(1, 1), padding=(2, 2))\n","    (2): ReLU(inplace=True)\n","  )\n","  (stack2_branch_pool): Sequential(\n","    (0): MaxPool2d(kernel_size=3, stride=1, padding=1, dilation=1, ceil_mode=False)\n","    (1): Conv2d(128, 64, kernel_size=(1, 1), stride=(1, 1))\n","    (2): ReLU(inplace=True)\n","  )\n","  (stack3_branch1x1): Sequential(\n","    (0): Conv2d(256, 128, kernel_size=(1, 1), stride=(1, 1))\n","    (1): ReLU(inplace=True)\n","  )\n","  (stack3_branch3x3): Sequential(\n","    (0): Conv2d(256, 128, kernel_size=(1, 1), stride=(1, 1))\n","    (1): Conv2d(128, 128, kernel_size=(3, 3), stride=(1, 1), padding=(1, 1))\n","    (2): ReLU(inplace=True)\n","  )\n","  (stack3_branch5x5): Sequential(\n","    (0): Conv2d(256, 128, kernel_size=(1, 1), stride=(1, 1))\n","    (1): Conv2d(128, 128, kernel_size=(5, 5), stride=(1, 1), padding=(2, 2))\n","    (2): ReLU(inplace=True)\n","  )\n","  (stack3_branch_pool): Sequential(\n","    (0): MaxPool2d(kernel_size=3, stride=1, padding=1, dilation=1, ceil_mode=False)\n","    (1): Conv2d(256, 128, kernel_size=(1, 1), stride=(1, 1))\n","    (2): ReLU(inplace=True)\n","  )\n","  (global_avg_pool): AdaptiveAvgPool2d(output_size=1)\n","  (fc): Linear(in_features=512, out_features=10, bias=True)\n",")\n"]}],"source":["class InceptionLike3Stack(nn.Module):\n","    def __init__(self, in_channels, num_classes):\n","        super(InceptionLike3Stack, self).__init__()\n","\n","        # Stack 1\n","        self.stack1_branch1x1 = nn.Sequential(\n","            nn.Conv2d(in_channels, 32, kernel_size=1),\n","            nn.ReLU(inplace=True)\n","     
…
